Data/Player2Vec.pth (torch_old, 21367 bytes, 4 tensors)

weight f4 [16, 7]
00000000: 3dcf 863b 5440 863b 5510 863b 5440 863b
00000010: 0000 0000 1a65 0540 a1ac d13b 8f5a cd40
00000020: f810 dd3f 2003 a43f 31be db3f f447 a539
00000030: c3ec 4339 8ad7 c53a 0000 0000 0000 0000
00000040: 0000 0000 0000 0000 dad5 303b 85fe 583b
00000050: 011d 6e3f 0000 0000 0000 0000 0000 0000
00000060: 0000 0000 379a 473a 2df1 893f bb45 a13f
00000070: fbe8 b13f 44bf 463d fa3f 1c3d 28bf 463d
00000080: f35f de3a 3fa5 ce39 3946 0b3e 63a0 0340
00000090: a981 1f3f 6b59 f63e a981 1f3f 4832 b83a
000000a0: 35fc 163a 697d 8b40 b259 2340 6be9 773e
000000b0: d5c7 263e 6be9 773e 3f4e a03e a25b 6d3e
000000c0: 9d30 b63b 38b5 2b37 dfb2 2b37 10b2 2b37
000000d0: dfb2 2b37 82f5 6840 23e2 b640 3e11 2e40
000000e0: 0000 0000 0000 0000 0000 0000 0000 0000
000000f0: f9ec a93a 7fe1 273b 81a9 913f 9995 2a40
00000100: cf7a 7f3e bfac 2a3e cf7a 7f3e 6ee9 4a3e
00000110: c1ec 9538 ad7b ff3f 735b 5240 ade7 bc3e
00000120: 2047 723e 93dc be3e 3559 f639 18a9 9e3a
00000130: 2385 c03f e90a 113a 54af 103a 8690 103a
00000140: 54af 103a 0000 0000 ccb2 0140 d0a4 263e
00000150: 02f7 3f3a 7490 3f3a 006e 3f3a 7490 3f3a
00000160: 308e d340 5c77 8540 7629 3139 0000 0000
00000170: 0000 0000 0000 0000 0000 0000 9c4e 213a
00000180: 39d1 a840 75b2 b93d 9c0b db40 0b96 9a3f
00000190: e7ab 5e3f 0b96 9a3f 870c 2c3b 9ca9 693a
000001a0: 7505 2b3b f54a 4140 0c45 2b3f ba17 f63e
000001b0: 0c45 2b3f 6480 4b3c 57e5 5e3a 50a2 7040
0.00411406 0.004097024 0.0040913024 0.004097024 0.0 2.0842957 0.006398753 6.4173045
1.7270803 1.2813454 1.7167417 0.00031524862 0.0001868485 0.0015094143 0.0 0.0
0.0 0.0 0.0026982934 0.003311069 0.93013006 0.0 0.0 0.0
0.0 0.00076142274 1.0776726 1.2599405 1.3899225 0.04852225 0.03814695 0.048522145
0.0016965851 0.000394145 0.13601007 2.0566642 0.6230722 0.48115095 0.6230722 0.0014053071
0.00057596277 4.359059 2.5523496 0.24210136 0.16287167 0.24210136 0.31309697 0.23179486
0.0055599944 1.02345875e-05 1.0234041e-05 1.0233853e-05 1.0234041e-05 3.6399846 5.7151046 2.7198024
0.0 0.0 0.0 0.0 0.00129643 0.0025616584 1.1379853 2.6653807
0.24949192 0.1666746 0.24949192 0.19815609 7.1489725e-05 1.9959618 3.2868316 0.36895505
0.23659945 0.3727766 0.0004698724 0.0012104837 1.504063 0.0005532937 0.000551929 0.00055147
0.000551929 0.0 2.026538 0.16273808 0.0007322879 0.0007307597 0.0007302463 0.0007307597
6.611107 4.17082 0.00016895481 0.0 0.0 0.0 0.0 0.00061533763
5.27554 0.09067241 6.845167 1.207704 0.8698105 1.207704 0.0026252584 0.00089135184
0.0026095782 3.0202 0.6690223 0.48064977 0.6690223 0.012420747 0.0008502802 3.7599068

bias f4 [16]
00000000: 0113 1540 ffd1 a839 9e3d 4f3f ef45 703f
00000010: 9ea4 473a cda3 8d3b 678a 6c3f 4624 eb38
00000020: 219c 9f3f 1fe8 403b 31d5 213b 6e3e 3740
00000030: 6f14 063b d65f 4940 b7eb 3e3b 4bee 393b
2.329285 0.00032199916 0.80953395 0.9385671 0.00076157774 0.004322505 0.92398685 0.0001121243
1.2469522 0.002943523 0.0024693722 2.8631854 0.0020458957 3.1464744 0.0029132196 0.0028370793

weight f4 [250, 16]
00000000: 96d9 573c 6d34 513c 5876 063c 370e 053c
00000010: 050a 2b3c 4809 af3d bcd5 4e3c b36a 053c
00000020: daf0 0b3c 460f f83b 92e5 f33b 7866 5b3c
00000030: 202d ba3b 8a54 503c cd41 513c e082 0d3c
00000040: 8380 dc3b 088b ce3b 71b0 0e3c 084a 133c
00000050: 443e ff3b 0904 563d 6f34 d93b 5f7a 463c
00000060: e9fb 0b3c 8ebb 183c 6352 153c f15f e73b
00000070: c49e f73b dd79 ed3b 2090 ce3b de04 9d3d
00000080: 244c 4f3a 2960 da3b 3fa5 7c3a da43 2e3a
00000090: 70d2 463b 88e5 5e3b 1680 8e3b 109e 1039
000000a0: 2a31 6a3a 443d d13a 8dc6 da3a 9464 463a
000000b0: 0000 0000 8fe7 2e3a 177c da3b a18c d83a
000000c0: b628 883b 18ca 093b 8b17 133c 5696 143c
000000d0: 8693 a23b 1769 bc3d e9b7 6a3b c544 9c3d
000000e0: a313 103c 7d8d 0b3c c356 003c 576f a43b
000000f0: 873e 3a3b 3049 8d3b b23d 0a3b 6a37 033d
00000100: 4c40 673b 7ae0 683d 1581 ba3a 1be5 d53a
00000110: dd3f c03b ceab 133d 5a68 a63b 8919 973b
00000120: 4f24 e63a ccf1 853b 5ebf 933b ff4f 783b
00000130: 6372 cd3b d2fc 6a3b f498 c03d 489f 823b
00000140: 25b4 823c 7ffd 013b 3ac3 053c 93de e23b
00000150: aea3 133b 16d7 873d 9cd7 cf3b f988 713b
00000160: 00b7 0d3c f93a 653b 4cc6 603b fa3a 043e
00000170: 037d c73a cd71 633d 0da2 013b 6cd7 653b
00000180: 7bd2 583c b695 413b d1cb 6a3b 8789 4c3b
00000190: 5d5e c139 a652 943b 650f 823b 9947 723b
000001a0: 1f04 623b 3643 613b 7fda 063b 7fe4 a23c
000001b0: 4b15 bc3a dcb5 913e 693b 413b db19 883b
000001c0: 5a3d 653c 4d16 313c 6d89 1139 6533 003b
000001d0: 70e0 133c 0822 ea3b d238 3e3c 20b6 8c3d
000001e0: 7294 353a 6a48 823a 9aaa 223b ab7f 5e3c
000001f0: cedf 3f3b 9308 213d 853d 313c 93f4 513a
00000200: 0000 0000 0000 0000 0000 0000 0000 0000
00000210: 0000 0000 ba46 eb3d 0000 0000 a98b 623c
00000220: 0000 0000 0000 0000 0000 0000 0000 0000
00000230: 1018 233b 0000 0000 0000 0000 9af2 e33c
00000240: e818 483a 21e6 bd3c 9ebd fc3a 0852 fe3a
00000250: e01d b73b f577 5d3d 6410 953a 9da5 103b
00000260: e6b9 f13a 0f98 873d eb74 ca3a fd19 623a
00000270: bd5e d33c f36b 573a 1131 f03c 7b42 033b
00000280: 125e ed3a 2bb5 8f39 9d6c 013b 8f04 153b
00000290: a369 193a 3a19 063b a71a 9d3a 3849 1f3e
000002a0: 4b1d f93a a1ed e03a e493 a83a ea04 e93a
000002b0: d992 c13d 4fe0 043b 797f 8e39 aa8b f13a
000002c0: 896d 3f3b 9572 6d3b dc1a 6e3b 6859 6c3b
000002d0: f558 743b 1a05 e83d 4904 643b a735 363d
000002e0: f406 6e3b 4208 743b 1ab5 753b da8f 483b
000002f0: c94f 0c3c ddb4 513b 2c97 6d3b 0c40 6d3b
00000300: 0000 0000 5d12 ff3c 0dd5 1b3a dcd5 053a
00000310: 6284 cd3b 0ff7 613d 42be 8c3a d585 f53a
00000320: 420c ea39 7ae8 f53a 764c 993a 0000 0000
00000330: f56f 173b 0000 0000 20fb c83c 7da8 1e3b
00000340: a3b9 463a 13a0 233e 7402 0b3b 1f5f 073b
00000350: 8279 5c3c cd65 433d 5570 033b 4926 653b
00000360: 39d1 063b 07c2 943b c3e5 363d d8d6 733a
00000370: 77bb d03b 35a9 493a 8b8f 5f3d 1bea 043c
00000380: bf43 fd3a 5274 af3d 6398 be3b 0719 bf3b
00000390: 513c 883b 608d 1e3c aaed f03a e321 e93b
000003a0: 071a a93b e7b5 f43b e77f e23b b182 0a3b
000003b0: 3d27 4e3b 2b26 163b c204 9d3d 8600 0c3c
000003c0: 822c 003b b3f9 043b 1935 173c aef1 133c
000003d0: ab76 633b 0e1b ab3d ead0 073b 7fc4 0b3c
000003e0: b331 0e3c 6098 1d3c e62d 0c3c 38a4 0d3b
000003f0: b384 253b a837 063b ccd5 043b 18c7 2e3c
0.013174435 0.012768847 0.008206926 0.008121065 0.010439401 0.08546692 0.0126242 0.008143115
0.00854131 0.00757018 0.0074431384 0.01339113 0.005681649 0.012715468 0.012772036 0.00863716
0.006729187 0.006303195 0.008709059 0.008989818 0.007789405 0.052249942 0.006628565 0.0121141365
0.008543947 0.00932206 0.009113881 0.0070609977 0.007556768 0.0072471933 0.006303802 0.07666944
0.0007907769 0.006664295 0.00096376607 0.0006647684 0.0030337833 0.0034011323 0.004348765 0.00013791793
0.00089337176 0.0015963693 0.0016691253 0.0007568088 0.0 0.0006672078 0.0066676247 0.0016521403
0.0041552437 0.0021024998 0.008977781 0.009069046 0.004961434 0.09199732 0.0035815185 0.07630304
0.008793744 0.00851762 0.007833186 0.0050181556 0.0028418617 0.004311703 0.0021093902 0.03203527
0.0035286127 0.056854703 0.0014229143 0.0016318889 0.005866988 0.036052518 0.0050783576 0.0046111983
0.0017558428 0.0040876623 0.0045088967 0.0037889478 0.0062697395 0.003585626 0.094041735 0.003986273
0.01595504 0.0019834933 0.008164221 0.0069235056 0.002252798 0.06632821 0.0063428413 0.0036855324
0.008649588 0.0034977777 0.0034297882 0.12913123 0.0015219752 0.05552845 0.0019780428 0.0035071028
0.013233776 0.0029538698 0.003582705 0.0031209902 0.00036882135 0.004526454 0.0039691203 0.0036968945
0.003448732 0.0034372336 0.0020577011 0.019884346 0.0014349608 0.2845906 0.0029484874 0.004153473
0.013991678 0.01080854 0.00013879473 0.0019561884 0.009025678 0.00714517 0.011610227 0.06870675
0.0006926722 0.0009939794 0.0024820925 0.013580243 0.0029277685 0.039314818 0.01081789 0.00080091617
0.0 0.0 0.0 0.0 0.0 0.114880994 0.0 0.013827243
0.0 0.0 0.0 0.0 0.0024886169 0.0 0.0 0.027825642
0.0007633106 0.023181023 0.0019282585 0.0019403109 0.005588278 0.054069478 0.0011372683 0.002207137
0.0018442243 0.066208 0.0015446221 0.00086250884 0.02580201 0.0008217685 0.029320272 0.002002864
0.00181097 0.00027410066 0.0019748576 0.0022738313 0.0005852228 0.0020461814 0.0011986092 0.15555274
0.0019005922 0.0017160663 0.0012861458 0.0017777954 0.09451837 0.00202753 0.00027179325 0.0018428464
0.0029209575 0.0036231626 0.0036331927 0.0036064032 0.0037284468 0.11329098 0.0034792593 0.04448476
0.0036320062 0.0037236367 0.0037491978 0.003060332 0.008563944 0.0031998672 0.0036253436 0.0036201505
0.0 0.031136686 0.0005944528 0.0005105415 0.006271885 0.055167254 0.0010737854 0.0018731902
0.0004464109 0.00187613 0.0011695761 0.0 0.0023107503 0.0 0.024533808 0.0024209314
0.00075807626 0.15979032 0.002121118 0.0020656062 0.013456704 0.047704507 0.0020055969 0.0034965447
0.0020571484 0.0045397314 0.04465271 0.00093017286 0.006370004 0.00076927553 0.054580253 0.008112456
0.0019322558 0.08567108 0.0058165058 0.005831841 0.004157581 0.009677261 0.0018381376 0.0071146353
0.0051605734 0.0074679735 0.00691222 0.0021135027 0.0031456493 0.0022910933 0.07666923 0.008545047
0.0019557779 0.0020290434 0.009228968 0.009029789 0.0034708183 0.0835477 0.0020723888 0.008530735
0.008678841 0.009618849 0.008555865 0.0021612775 0.0025256097 0.002047995 0.0020269034 0.010667585

bias f4 [250]
00000000: 4e37 613c 4fa8 c53b 2f6b 9c3a 2f55 8a3b
00000010: b2d3 663b 7a14 dc3d f970 ea3d 570e 403c
00000020: 0000 0000 513c 403a e817 b83a 65f5 4c3b
00000030: 05ed 6d39 1166 573a 7f28 c43a 1d88 fd3a
00000040: 0000 0000 0000 0000 9166 a33a 0000 0000
00000050: 45e8 043c 0000 0000 0096 ca3c 3356 1a3c
00000060: 7632 193c fcc1 813b 0964 953b 67b7 303e
00000070: f8e7 913b 2262 593c 39dd 2f3b 1be9 633c
00000080: 7001 d83b fdf1 823d 9b65 bb3c f622 e13a
00000090: bd86 d53b e455 d13b 263f 313c 0000 0000
000000a0: 4aad 423b 0000 0000 1626 3f3c e02f 8d3b
000000b0: 679a e43a 2c9e 123b d33e 103c 0000 0000
000000c0: b190 c63b 507c 3c3b f95b 8c3b e7b6 b33c
000000d0: 365f 7e3e 9214 a33a b570 a13b 66ff fb3b
000000e0: 9181 da3b ceb6 bb3c bce5 ab3b 471a 523b
000000f0: 0525 d63d 981d 263b d477 023c 3632 c23c
00000100: d17f 553a bfdb 6a3b 63cf 183c 3a3f 793b
00000110: 9bf8 a03b 4b58 653b 13e5 fb3b 6efb 293b
00000120: 1863 fc3b c405 293a 57dd 093c ab24 a83d
00000130: c763 153e 1ab3 f739 c397 0e3d 0000 0000
00000140: 0000 0000 85d7 8f3e a3c1 6e3c 2613 373d
00000150: 39b7 793d 0000 0000 0e80 813b d353 8e3b
00000160: 823d 7c3b cb8e 6a3b 7d8a 203c 2418 b03c
00000170: 29ed 983a b9ff bb3b 7fb0 993a 48be 7739
00000180: 32c6 5a3c 38ca 8e3d e6eb 4f3a 0676 043c
00000190: 0000 0000 cda4 2c3b 8f9e 7939 b511 c53a
000001a0: c230 ea3a 4467 b439 a1ec 443c 8234 9a3c
000001b0: e505 bc3a 3aa8 e33b ab60 ef3b 3249 ce3d
000001c0: 0000 0000 fd52 d83a ccc6 8d3b 0320 b63b
000001d0: a162 7e3b 3389 513c f2f8 403e f6ec 143b
000001e0: f91a 823a 6caa 9a3d fb57 c03b df32 a23b
000001f0: d69d 6b3c 0000 0000 4874 bb3a 020d 943b
00000200: e143 273b 0000 0000 0000 0000 be95 3f3b
00000210: 1db7 6b3b 0000 0000 e454 323d 9cef 653b
00000220: 284d 0d3c e89a 043e c9f2 963b 0000 0000
00000230: b4b0 433b fa37 4f3e 461a 793b 0000 0000
00000240: 405d 2e3b a44a f03b 3364 033c 2ff5 db3a
00000250: cf12 4d3e 219d 4c3b 16d2 523c 827e 073c
00000260: e939 4d3c 0587 423b 0c47 233c 0000 0000
00000270: 17e2 663d 093a 963b 6d74 fb3b ace2 563b
00000280: 8bb2 cc3b f990 983e 646a 653c 247d 9539
00000290: 633d 483e 98e2 213b d398 5c3b daed a13b
000002a0: ef5e da3b c05b d33b ec26 ee3a 094d b73d
000002b0: 4e1d 803e 54ef 083b df90 0e3c 7fc6 fb3d
000002c0: 0000 0000 bdb8 863c cc4e 3c3c 4c97 503a
000002d0: c2f6 7a3b 5dfc b23e 108d 763b 795a 433b
000002e0: 625a bf3a 466c bb3c 291e 6e3c fe23 a53b
000002f0: 31cd 963a 3cf9 6b3b 9191 393e ea6f dc3a
00000300: 442d 653b 9857 2d3b 51e9 f53b 8fd2 253d
00000310: 1618 053b e2c4 9d3b 5fa6 cd3a 0000 0000
00000320: 7250 8b3b de57 453b 0000 0000 5a53 dd3a
00000330: 1752 4c3b 5edf 133c ec81 4c3e 6ba1 d23b
00000340: bbca 0a3c 39fa 243c fcdd de3a 3953 9e3b
00000350: f8be f73b 172a 9b3a 5dfb 1d3b ea0a 0b3c
00000360: 0000 0000 b66e 1d3c 734d 9e3b d398 b63a
00000370: 661b 883b d936 9b3a 78d3 5e3a d4b1 1f3d
00000380: 0f4c 823b d989 173b b541 d13b 8ffc 483e
00000390: d388 ca3b d1ce 3a3d 14c4 df3b 7f7e ab3c
000003a0: 21d3 e23b 4313 183c 3c9d f73a bc66 223c
000003b0: 0000 0000 6662 953a 765e 243e e095 f63b
000003c0: bfb2 073c 8092 9a3b fcc5 523b 81a0 4c3c
000003d0: 48ff 193e e071 f43b 6844 5138 f7b9 073d
000003e0: 0341 7a3b 5aa9 eb3a
0.013746096 0.006032027 0.0011933799 0.0042215805 0.0035221395 0.10746093 0.11447329 0.011722169
0.0 0.00073332066 0.001404521 0.0031274196 0.00022690378 0.0008216808 0.0014965682 0.0019342933
0.0 0.0 0.001246648 0.0 0.008112018 0.0 0.024729729 0.009419966
0.00935041 0.0039598923 0.0045590443 0.17257462 0.0044527017 0.013268026 0.002683474 0.013910557
0.0065919682 0.06393812 0.022875598 0.0017176557 0.006516306 0.006388413 0.010818278 0.0
0.002970534 0.0 0.011666795 0.0043086857 0.0017441035 0.002237211 0.008804041 0.0
0.006059729 0.002876062 0.004283425 0.0219378 0.24841008 0.0012442044 0.004926766 0.007690358
0.0066682776 0.022914317 0.0052458923 0.003205912 0.1045628 0.002534723 0.00796314 0.023705583
0.00081443513 0.0035836545 0.009326789 0.003803207 0.0049124486 0.0034995254 0.00768722 0.0025937217
0.0077022426 0.00064476975 0.008414588 0.08210119 0.14588843 0.00047244952 0.0348127 0.0
0.0 0.28094116 0.014572534 0.044695996 0.06096575 0.0 0.003952033 0.0043434887
0.003848881 0.0035790678 0.009798643 0.021495886 0.0011667359 0.0057372716 0.0011725574 0.00023626641
0.0133529175 0.06972164 0.0007931575 0.00808478 0.0 0.0026343346 0.00023805558 0.0015035184
0.0017867314 0.00034409214 0.012019307 0.018823866 0.0014345018 0.0069475444 0.007305225 0.10072555
0.0 0.0016504225 0.004326677 0.0055580153 0.0038816112 0.0127890585 0.18844965 0.0022724248
0.0009926251 0.07552037 0.005869863 0.004949912 0.014380893 0.0 0.0014301622 0.004518152
0.0025522637 0.0 0.0 0.002923354 0.0035967298 0.0 0.04353799 0.0035085445
0.0086243525 0.12949717 0.004606579 0.0 0.0029859962 0.20236197 0.0038010045 0.0
0.0026605874 0.0073331166 0.008019495 0.0016781444 0.20026706 0.0031221586 0.012867471 0.008269908
0.012526014 0.0029682529 0.009965669 0.0 0.05636796 0.004584555 0.007673791 0.0032788916
0.00624687 0.29798105 0.014002416 0.00028512732 0.19554667 0.002470171 0.0033660426 0.004941684
0.006664149 0.0064501464 0.0018169559 0.0895024 0.25022358 0.0020894604 0.008701532 0.122937195
0.0 0.016445512 0.011493396 0.00079571153 0.0038294052 0.34958163 0.00376207 0.0029808565
0.001459908 0.022878777 0.014533558 0.005039691 0.0011505244 0.003600671 0.18121935 0.0016818021
0.0034969607 0.0026449915 0.00750462 0.040484007 0.0020308546 0.00481473 0.0015689841 0.0
0.004251533 0.0030112187 0.0 0.0016885803 0.003117686 0.009025423 0.19971436 0.006427934
0.008471186 0.010069423 0.0017003412 0.0048316983 0.007560607 0.0011838105 0.0024106123 0.008486489
0.0 0.009608915 0.00483101 0.0013931043 0.004153657 0.0011841907 0.0008500139 0.03898795
0.003976352 0.0023122935 0.0063860067 0.19627593 0.0061808615 0.04560739 0.0068287943 0.020934341
0.006922141 0.009281936 0.0018891464 0.009912189 0.0 0.0011397123 0.16051659 0.0075251907
0.0082823625 0.004717171 0.0032161465 0.012489439 0.15038788 0.007459864 4.989319e-05 0.033136334
0.0038185723 0.0017979548
